model/model.pth (torch, 17216 bytes, 4 tensors)

linear1.weight f4 [256, 11]
-0.34463474 -0.30300966 0.5539867 0.13688466 0.021950569 0.15431714 0.092253394 0.036078572
-0.06890619 -0.17377943 -0.018734105 0.5601983 0.48247817 -0.6119817 0.128674 0.22156955
0.09038034 0.12159269 0.15128753 -0.1739209 0.056829274 -0.010300166 0.2016888 0.26679724
0.27457845 -0.25731653 0.19695775 0.07532737 0.06917162 0.34387925 -0.13148412 -0.09714331
0.080091044 -0.4490869 -0.17004536 0.25178596 -0.14179705 0.03508043 -0.2882621 0.057943936
0.21640228 0.18089513 -0.112292595 0.20199445 0.59629846 -0.2130419 -0.059942868 -0.19668472
-0.06178641 0.38212594 0.10776357 0.25517285 0.0666877 -0.33319432 -0.081496105 0.29248992
0.42553177 -0.5023318 -0.036739826 -0.09818597 0.42067668 -0.28553462 0.28744757 0.11761638
-0.26619482 0.4295115 0.5800772 -0.4320989 0.066909485 -0.148872 0.40713355 0.3122672
0.31694144 0.3109031 -0.27915946 -0.1615006 0.040803038 0.24643464 0.6210096 0.15299177
0.10093588 0.05104392 0.2058051 -0.087514944 -0.030154122 0.003626307 0.21070634 0.19489644
-0.014481993 -0.04481521 -0.23253872 -0.094951056 0.18990962 -0.17970309 -0.04326256 -0.34606063
-0.23016097 0.22901367 -0.029953294 -0.30160454 -0.36983308 -0.22114179 0.3520879 0.15301904
0.23680556 -0.37393084 -0.020576779 -0.14418256 -0.100016266 -0.38632008 -0.32616454 0.28523284
0.077854045 -0.221724 0.22564974 -0.03058667 0.1341757 -0.111202925 0.017617628 -0.36031127
0.10467533 -0.42045438 0.04225498 0.19696958 0.070461765 -0.01507209 -0.22653647 0.03172734
-0.034505595 0.30193546 -0.4921947 -0.019631032 0.3524042 0.37879652 -0.1663436 -0.29526487
0.19200478 0.35706243 -0.07341691 0.4012986 -0.11288155 -0.24651961 0.14392416 -0.30637833
0.6147995 -0.09378816 -0.10341851 0.15463206 -0.36155224 0.07736798 -0.25438684 -0.08723599
-0.051566813 0.17789589 -0.15012057 -0.2137809 0.55137366 -0.14087693 -0.020971032 -0.29768103
-0.23233904 -0.064356364 0.2952544 0.07235004 -0.14273834 -0.16258062 -0.070784435 0.09899924
-0.015089095 0.14986181 -0.012968391 -0.21337113 -0.116550595 -0.035437617 -0.033180352 0.040640805
0.123118445 -0.29472977 -0.15795475 0.1334146 -0.18559384 0.13860895 -0.039959043 -0.13694598
-0.012325461 -0.17594008 -0.019047663 -0.31121492 0.55603355 -0.08686568 0.13804863 0.39186525
0.057947908 0.06234646 0.049779598 0.12316339 0.024420202 -0.12312034 0.15445152 -0.40197313
-0.14098276 -0.26005727 0.19699012 0.10925066 -0.11685487 0.2507483 0.092769995 -0.20223707
0.04953887 0.4693241 -0.38998887 0.27287987 0.010409291 0.0782867 -0.0750339 -0.1269713
-0.106556475 0.0099553885 0.22396964 0.287234 -0.09166748 0.3326635 0.2074527 -0.34226945
-0.28708628 0.1858382 0.06316022 -0.26842374 0.053610854 0.09483904 0.26263228 0.1779469
-0.2289514 -0.24610844 -0.062869295 -0.23253545 0.04327471 -0.18509278 0.048081126 -0.24656072
-0.29605687 -0.051196784 0.31282654 -0.3765518 0.292781 -0.22452661 0.18798989 0.05787944
0.08859679 0.31124696 0.24292716 0.051062647 0.040514834 -0.11020511 0.3027523 0.32759005
00000000: f773 b0be 1524 9bbe 13d2 0d3f 7e2b 0c3e
00000010: aed1 b33c 5005 1e3e 59ef bc3d 20c7 133d
00000020: b01e 8dbd 3cf3 31be 4478 99bc 2869 0f3f
00000030: 6107 f73e d5aa 1cbf 1ec3 033e 21e3 623e
00000040: 5419 b93d 9705 f93d 1eeb 1a3e 5218 32be
00000050: d0c5 683d 07c2 28bc 8287 4e3e a699 883e
00000060: 8c95 8c3e febe 83be 4baf 493e 3c45 9a3d
00000070: daa9 8d3d f110 b03e c6a3 06be 12f3 c6bd
00000080: c606 a43d b8ee e5be 5f20 2ebe 17ea 803e
00000090: 3f33 11be 7fb0 0f3d 1797 93be 9f56 6d3d
000000a0: 8f98 5d3e 933c 393e a9f9 e5bd a2d7 4e3e
000000b0: 04a7 183f a827 5abe a786 75bd b867 49be
000000c0: bf13 7dbd 03a6 c33e 26b3 dc3d 04a6 823e
000000d0: 9093 883d 7298 aabe 6ee7 a6bd 3dc1 953e
000000e0: 4ddf d93e d198 00bf 807c 16bd ba15 c9bd
000000f0: ef62 d73e 9831 92be 542c 933e dbe0 f03d
00000100: b04a 88be eee8 db3e f07f 143f 113c ddbe
00000110: d707 893d e771 18be cf73 d03e 7de1 9f3e
00000120: 2646 a23e b12e 9f3e fded 8ebe 6a60 25be
00000130: 1621 273d 5d59 7c3e 7cfa 1e3f e0a9 1c3e
00000140: 78b7 ce3d 6e13 513d 92be 523e 093b b3bd
00000150: c705 f7bc 56a7 6d3b 67c3 573e ef92 473e
00000160: e245 6dbc 2790 37bd a11e 6ebe b375 c2bd
00000170: ab77 423e 1604 38be 1534 31bd dc2e b1be
00000180: 51af 6bbe 8f82 6a3e 9c60 f5bc e96b 9abe
00000190: c35a bdbe fe72 62be dd44 b43e 06b1 1c3e
000001a0: 287d 723e dd73 bfbe a290 a8bc 98a4 13be
000001b0: 54d5 ccbd bfcb c5be 0aff a6be 0a0a 923e
000001c0: f171 9f3d 9e0b 63be ba10 673e e590 fabc
000001d0: 5b65 093e 5cbe e3bd d852 903c b87a b8be
000001e0: 0560 d63d cc45 d7be 8f13 2d3d 65b2 493e
000001f0: 424e 903d edf0 76bc 2df9 67be 87f4 013d
00000200: bd55 0dbd 4997 9a3e f200 fcbe 42d1 a0bc
00000210: 536e b43e 9ef1 c13e fa55 2abe f52c 97be
00000220: e79c 443e e3d0 b63e 9b5b 96bd 0377 cd3e
00000230: 712e e7bd a36f 7cbe db60 133e 9fdd 9cbe
00000240: 8063 1d3f 0214 c0bd 15cd d3bd de57 1e3e
00000250: 601d b9be 1a73 9e3d fe3e 82be c8a8 b2bd
00000260: b937 53bd 572a 363e 35b9 19be 61e9 5abe
00000270: d326 0d3f 0b42 10be 71cb abbc a669 98be
00000280: 49ea 6dbe 45cd 83bd 962b 973e 422c 943d
00000290: 002a 12be 897b 26be 6ef7 90bd 1dc0 ca3d
000002a0: 4038 77bc 6075 193e 6079 54bc f67d 5abe
000002b0: 14b2 eebd 0927 11bd 1fe8 07bd f976 263d
000002c0: 8625 fc3d d2e6 96be e4be 21be d69d 083e
000002d0: 500c 3ebe 81ef 0d3e 18ac 23bd 913b 0cbe
000002e0: bbf0 49bc a329 34be d809 9cbc 9057 9fbe
000002f0: 3758 0e3f a2e6 b1bd 9f5c 0d3e 90a2 c83e
00000300: c95a 6d3d 005f 7f3d b1e5 4b3d 163d fc3d
00000310: e00c c83c 8426 fcbd 8a28 1e3e 6ccf cdbe
00000320: c95d 10be 3a26 85be c7b7 493e cfbe df3d
00000330: 9b51 efbd 1562 803e 32fe bd3d 3c17 4fbe
00000340: 45e9 4a3d 404b f03e 9fac c7be e9b6 8b3e
00000350: bb8b 2a3c c754 a03d 60ab 99bd c404 02be
00000360: 483a dabd ed1b 233c 4c58 653e 5610 933e
00000370: 29bc bbbd df52 aa3e 7b6e 543e f13d afbe
00000380: f9fc 92be 5e4c 3e3e 255a 813d d66e 89be
00000390: 0e97 5b3d f83a c23d bd77 863e b637 363e
000003a0: 3c72 6abe da03 7cbe 9ec1 80bd c61d 6ebe
000003b0: d340 313d f688 3dbe b7f0 443d 6a7a 7cbe
000003c0: c494 97be b8b3 51bd cd2a a03e 66cb c0be
000003d0: 64e7 953e 4eea 65be 6c80 403e fe12 6d3d
000003e0: 3c72 b53d c35b 9f3e e6c1 783e 1127 513d
000003f0: e2f2 253d 37b3 e1bd 5902 9b3e e2b9 a73e

linear1.bias f4 [256]
0.2166485 -0.0831923 -0.077319 0.08907925 -0.04304757 -0.14046595 -0.1890287 -0.03604876
-0.05681349 0.40957528 0.10339481 0.2580135 -0.1069133 0.16063382 -0.053249497 -0.32309446
-0.2961917 -0.22704643 0.041663762 -0.15455955 0.07416018 -0.28915644 -0.13467894 0.18762873
-0.15022305 0.16195908 -0.18367083 0.26772207 0.008422454 -0.23770607 -0.18210213 -0.20432991
-0.08153901 0.24797663 0.20270638 0.023235308 -0.05201031 -0.20288618 -0.07560142 -0.12778081
0.0942785 -0.1500037 -0.04564708 -0.15573098 0.02843356 -0.07592395 0.20613305 -0.05238643
-0.024418946 -0.18409337 0.27289528 0.12526523 -0.23135671 0.21832635 -0.12073559 0.031225136
-0.1716815 -0.0539616 -0.17891961 -0.23909299 0.13094129 -0.3647671 -0.21413766 -0.2760529
0.08353367 -0.0075363046 0.23181808 0.17914711 0.025303163 -0.14807698 0.02447571 -0.014821821
0.04319109 0.008415591 0.01873782 -0.15120004 -0.30148834 0.053057414 0.08649872 0.11720624
-0.17018625 -0.23821142 -0.12205318 0.08853578 0.18918765 -0.27544704 0.16165107 0.1479398
0.43241715 -0.11687704 0.2205303 -0.045355767 -0.044609513 -0.12790461 -0.047027018 0.21974427
-0.12995903 -0.13308667 -0.02079003 0.23485947 -0.17161238 0.18347873 -0.17928497 -0.39019948
0.079263724 -0.11722546 -0.085800126 -0.1276255 0.08375364 -0.25810105 -0.025217619 0.25318614
0.05013732 -0.12196121 -0.20115335 0.037328124 -0.17555822 0.117708765 0.035234574 0.41012046
0.012768099 0.049277175 -0.24707416 0.047951683 0.14426659 0.09668337 0.13663816 -0.27615082
-0.11742148 0.13545473 -0.09266567 0.07381761 0.07150395 -0.0287822 0.20024756 0.20360155
-0.21405116 -0.03905514 0.003012401 0.008877765 -0.06529669 0.035008427 -0.040891074 -0.07760014
-0.016058186 -0.118617095 0.08107607 -0.25091523 -0.22238907 -0.23460503 0.13545771 0.024531519
-0.09270498 -0.059530776 -0.2906381 0.03277766 -0.19648609 -0.21172509 0.1072159 -0.05830877
-0.14394256 0.013456809 0.16807997 0.06911704 0.009324602 -0.1611886 0.4859058 -0.10668142
-0.22577201 0.17422761 0.3072187 0.23830734 0.11593513 -0.2005836 -0.29298484 -0.19022582
-0.2564378 -0.04173313 0.3736838 -0.072620735 -0.1172229 0.0044737696 -0.13503738 0.07564581
-0.26583463 -0.05023587 0.055070005 0.09162028 0.07626007 0.15509497 0.15590492 -0.028020708
-0.109724194 -0.09536383 -0.029821971 0.43139908 0.1347624 -0.2707935 -0.019174714 0.20254245
-0.085082516 0.16221897 0.02665492 0.09268409 0.24542359 0.063796274 0.053322844 -0.043514963
0.23892221 -0.05709161 -0.055427544 0.023308598 0.23858158 0.054888505 -0.14028247 -0.04062455
-0.07953336 -0.037286695 -0.25599036 -0.08962064 -0.09546601 -0.06581944 -0.24138051 -0.26190466
-0.029487485 0.23493068 0.0027101985 -0.34670636 0.048794564 -0.07944905 -0.10881382 -0.42858434
-0.16698448 -0.05793419 0.16469155 -0.074759 -0.22577058 -0.11209238 -0.2461655 0.16465765
0.28296593 -0.18974724 0.20926441 0.023943963 0.34035242 0.14765391 -0.09393096 -0.10171019
-0.3618994 -0.1762207 0.110278405 0.011677228 -0.11304703 -0.061358437 -0.0023074811 -0.09164523
00000000: 1bd9 5d3e b960 aabd 6d59 9ebd 2f6f b63d
00000010: a652 30bd 4ed6 0fbe bd90 41be dda7 13bd
00000020: 43b5 68bd dab3 d13e a8c0 d33d 581a 843e
00000030: 5cf5 dabd 317d 243e 251c 5abd a36c a5be
00000040: 70a6 97be dc7e 68be 9fa7 2a3d dc44 1ebe
00000050: 4be1 973d 500c 94be 47e9 09be bf21 403e
00000060: 12d4 19be 9ad8 253e 3514 3cbe de12 893e
00000070: 55fe 093c 3869 73be fb78 3abe dc3b 51be
00000080: edfd a6bd 96ed 7d3e 4392 4f3e f957 be3c
00000090: c308 55bd 65c1 4fbe ebd4 9abd f9d8 02be
000000a0: 1615 c13d 929a 19be 6ff8 3abd f177 1fbe
000000b0: 7fed e83c 047e 9bbd 8b14 533e 2793 56bd
000000c0: 3e0a c8bc f982 3cbe eeb8 8b3e 8745 003e
000000d0: c6e8 6cbe f190 5f3e 3944 f7bd dbcb ff3c
000000e0: 46cd 2fbe d706 5dbd b436 37be cbd4 74be
000000f0: 7915 063e c1c2 babe e746 5bbe ce56 8dbe
00000100: b313 ab3d 1bf3 f6bb b861 6d3e 5772 373e
00000110: 9448 cf3c 7ea1 17be 4981 c83c 39d7 72bc
00000120: 24e9 303d 8ce1 093c 0f80 993c 2fd4 1abe
00000130: ae5c 9abe bb52 593d 3e26 b13d d309 f03d
00000140: 4e45 2ebe b2ed 73be 05f7 f9bd 3f52 b53d
00000150: 68ba 413e 6507 8dbe dc87 253e 887d 173e
00000160: c865 dd3e 3b5d efbd b2d2 613e f8c6 39bd
00000170: 77b8 36bd 6df9 02be 679f 40bd a404 613e
00000180: fb13 05be df47 08be da4f aabc 007f 703e
00000190: 28bb 2fbe d9e1 3b3e 7b96 37be 3ac8 c7be
000001a0: 0555 a23d e713 f0bd fab7 afbd 42b0 02be
000001b0: 0787 ab3d d225 84be 2e95 cebc 9da1 813e
000001c0: ca5c 4d3d cdc6 f9bd 25fb 4dbe 60e5 183d
000001d0: 89c5 33be 4b11 f13d 2152 103d 4ffb d13e
000001e0: 4a31 513c ddd6 493d 0201 7dbe fc68 443d
000001f0: 9fba 133e ee01 c63d e0ea 0b3e a463 8dbe
00000200: ac7a f0bd a5b4 0a3e 80c7 bdbd b02d 973d
00000210: aa70 923d a6c8 ebbc b20d 4d3e ed7c 503e
00000220: 3a30 5bbe 48f8 1fbd b46b 453b 0c74 113c
00000230: 45ba 85bd ff64 0f3d 667d 27bd d2ec 9ebd
00000240: 758c 83bc 85ed f2bd 360b a63d f677 80be
00000250: f6b9 63be 4d3c 70be 6db5 0a3e 53f6 c83c
00000260: 1cdc bdbd 8bd6 73bd 84ce 94be de41 063d
00000270: a633 49be 76ce 58be 0394 db3d 2dd5 6ebd
00000280: ae65 13be f379 5c3c 281d 2c3e 3c8d 8d3d
00000290: 37c6 183c a00e 25be a5c8 f83e ca7b dabd
000002a0: c730 67be b968 323e c54b 9d3e d706 743e
000002b0: 666f ed3d ca65 4dbe 1c02 96be 8fca 42be
000002c0: d14b 83be 5cf0 2abd 7c53 bf3e 2eba 94bd
000002d0: 8f12 f0bd b398 923b 3d47 0abe 31ec 9a3d
000002e0: 7a1b 88be 21c4 4dbd 1691 613d 6aa3 bb3d
000002f0: 3d2e 9c3d 37d1 1e3e 8aa5 1f3e af8b e5bc
00000300: 14b7 e0bd 1d4e c3bd 354d f4bc 57e0 dc3e
00000310: 28ff 093e 72a5 8abe 4a14 9dbc 4a67 4f3e
00000320: be3f aebd bb1c 263e 6b5b da3c 28d1 bd3d
00000330: 5250 7b3e 9fa7 823d 0e69 5a3d bf3c 32bd
00000340: 06a8 743e e4d8 69bd fe07 63bd acf1 be3c
00000350: bb4e 743e c5d2 603d 35a6 0fbe ee65 26bd
00000360: 63e2 a2bd efb9 18bd 2b11 83be 078b b7bd
00000370: af83 c3bd 58cc 86bd 742c 77be 5e18 86be
00000380: bd8f f1bc ab91 703e 969d 313b 7f83 b1be
00000390: cfdc 473d 2fb6 a2bd c8d9 debd 686f dbbe
000003a0: fbfd 2abe 674c 6dbd e7a4 283e 3f1b 99bd
000003b0: 6730 67be b190 e5bd cf12 7cbe 049c 283e
000003c0: e9e0 903e 1a4d 42be 6949 563e 2126 c43c
000003d0: ac42 ae3e 9632 173e e05e c0bd 6f4d d0bd
000003e0: e14a b9be 3373 34be a5d9 e13d d851 3f3c
000003f0: 3485 e7bd fc52 7bbd 1c39 17bb 7fb0 bbbd

linear2.weight f4 [3, 256]
0.11226866 -0.15458475 -0.14653602 0.1278835 -0.43732744 -0.25353888 -0.24369282 -0.085288994
-0.05957624 0.31835827 0.19465815 0.18496586 -0.27410662 0.13847548 0.041624635 0.07032204
-0.018588722 0.2404751 -0.05056438 -0.16905293 0.060134675 -0.032434117 -0.1448911 -0.006732992
-0.31717366 0.07034799 -0.44199276 0.16295806 -0.12291699 -0.44126558 0.076604225 -0.161442
-0.14928912 0.25355566 0.1414538 -0.33267736 0.06966703 -0.040457357 -0.14948243 -0.26586512
0.050963536 -0.49804378 -0.07468885 -0.17918737 0.17558359 -0.06962483 -0.020799562 -0.18220961
-0.30158654 -0.32405463 0.08660808 0.20667614 -0.21301198 -0.046011794 -0.15500669 -0.19712438
-0.1381441 -0.39042345 -0.061946217 0.11319657 -0.6429565 0.072141394 -0.16124116 -0.28251734
-0.11318858 -0.20281237 0.11889486 -0.09826118 -0.16261987 -0.036835603 0.20809434 -0.07816363
0.17185158 0.20444153 -0.092386715 0.21221527 -0.27664354 0.02385692 -0.052415468 -0.101472124
-0.091247775 0.009626921 0.0042756656 0.26054636 0.002932139 -0.19425787 -0.08080921 -0.3757874
0.20038569 0.05863416 -0.03779436 -0.22822443 -0.2955916 -0.053015642 -0.063779965 0.25343952
-0.255832 -0.07711596 0.08450884 0.051164627 -0.26769862 0.0333693 -0.35755482 -0.04281559
-0.004413068 -0.17325713 0.09187917 0.07996047 -0.06964741 -0.3263128 -0.26907367 0.18856563
0.22757062 -0.2167853 -0.024784392 0.18845977 0.20065264 -0.09481061 -0.22769266 0.17840676
-0.2268146 -0.17375298 0.007350651 -0.0006326954 -0.01626746 0.0013380246 0.16566326 -0.24911846
-0.24836096 0.25785604 -0.02192441 -0.073730834 0.13585006 0.038773786 0.16161893 0.058579642
-0.20573765 -0.13857229 -0.26154986 0.13497837 -0.14134121 0.19258054 0.12855896 -0.21874182
-0.17085724 0.2311074 -0.069792084 -0.36901596 0.04695534 -0.2863848 0.026712416 -0.10077177
-0.17590204 -0.11955068 -0.04725799 0.12501635 -0.21910504 -0.06640076 0.21730663 0.14968143
0.1954603 0.2608844 0.29400203 -0.0013042216 -0.09891536 -0.19318877 0.2719729 -0.18612312
0.18921094 0.0606002 0.32104567 0.372429 -0.12687728 -0.6578238 0.022079598 -0.032911174
0.050845593 0.2575714 0.17326549 -0.14928286 -0.1369791 0.10938967 -0.1688371 -0.11350129
-0.004718637 0.0540118 0.21354003 -0.26872855 0.18994214 0.024327585 0.03262032 -0.31662214
0.23079392 -0.17427334 -0.090625845 0.35326836 -0.071637526 -0.33867198 0.10035745 0.14516142
-0.06247454 -0.45547554 -0.0725937 0.1116588 0.08095206 0.12713252 -0.15598857 0.18533836
0.13284473 -0.2361956 0.021677611 0.049319107 0.09952816 0.059602775 -0.13544933 -0.42251182
-0.022349462 -0.106406316 -0.027087308 -0.19500703 -0.15962745 -0.068875365 0.25001562 0.027603265
-0.3380443 0.19846089 0.26166767 -0.037795477 -0.08875221 -0.15880409 -0.35869065 0.019866731
-0.22790359 -0.20983456 0.2293366 -0.11413701 -0.2445171 -0.35697702 -0.01181731 0.25012898
0.18482667 -0.04807331 -0.05046268 -0.32974023 0.12864164 0.2722815 0.3440548 -0.2505295
-0.0031256299 -0.2335367 0.018645553 0.10378352 -0.14012375 -0.098611794 -0.14186633 0.14938551
00000000: 1ced e53d 774b 1ebe 8a0d 16be e4f3 023e
00000010: 62e9 dfbe d9cf 81be 9c8a 79be ffab aebd
00000020: 3706 74bd dbff a23e 7754 473e b167 3d3e
00000030: b457 8cbe 84cc 0d3e 987e 2a3d 0005 903d
00000040: 6047 98bc 1b3f 763e 981c 4fbd 361c 2dbe
00000050: c74f 763d a3d9 04bd 555e 14be 6ea0 dcbb
00000060: 9664 a2be 9b12 903d e04c e2be 7ade 263e
00000070: e7bb fbbd 90ed e1be ade2 9c3d 0d51 25be
00000080: 3fdf 18be 0cd2 813e 44d9 103e b054 aabe
00000090: 96ad 8e3d 9db6 25bd ec11 19be 791f 88be
000000a0: 24bf 503d 98ff febe 78f6 98bd e57c 37be
000000b0: 2fcc 333e 7697 8ebd d863 aabc 2895 3abe
000000c0: 8d69 9abe 7dea a5be 945f b13d e9a2 533e
000000d0: d01f 5abe dd76 3cbd 13ba 1ebe f9da 49be
000000e0: a675 0dbe 95e5 c7be 51bb 7dbd 9ad3 e73d
000000f0: cc98 24bf debe 933d 671c 25be 1da6 90be
00000100: 6acf e7bd 0cae 4fbe 267f f33d 283d c9bd
00000110: d385 26be eee0 16bd af16 553e 4114 a0bd
00000120: dcf9 2f3e 1f59 513e 3f35 bdbd f64e 593e
00000130: 39a4 8dbe 966f c33c 9ab1 56bd 9ed0 cfbd
00000140: 1de0 babd 3cba 1d3c e21a 8c3b 5566 853e
00000150: 2129 403b 89eb 46be 4d7f a5bd 3567 c0be
00000160: e831 4d3e 5f2a 703d 42ce 1abd aab3 69be
00000170: c857 97be ee26 59bd 129f 82bd d3c2 813e
00000180: 69fc 82be f9ee 9dbd f912 ad3d 0092 513d
00000190: cb0f 89be 3fae 083d 6d11 b7be 665f 2fbd
000001a0: 7f9b 90bb 516a 31be 252b bc3d 51c2 a33d
000001b0: 4da3 8ebd 7912 a7be 06c4 89be 5917 413e
000001c0: 4608 693e f7fc 5dbe a308 cbbc 99fb 403e
000001d0: e377 4d3e 112c c2bd 4428 69be 43b0 363e
000001e0: 1642 68be 4dec 31be bbdd f03b 78db 25ba
000001f0: 5643 85bc a860 af3a a1a3 293e e918 7fbe
00000200: 5652 7ebe b505 843e d29a b3bc 3100 97bd
00000210: 471c 0b3e 43d1 1e3d 6f7f 253e 35f1 6f3d
00000220: e4ac 52be e5e5 0dbe dde9 85be c537 0a3e
00000230: c0bb 10be d533 453e f6a4 033e dbfd 5fbe
00000240: 33f5 2ebe 6ba7 6c3e 27ef 8ebd a9ef bcbe
00000250: 3e54 403d 07a1 92be ffd3 da3c 6e61 cebd
00000260: aa1f 34be fdd6 f4bd 9891 41bd 4904 003e
00000270: 125d 60be 1ffd 87bd a185 5e3e 1746 193e
00000280: bf26 483e a492 853e 6f87 963e 6af2 aaba
00000290: 2394 cabd 47d3 45be 0840 8b3e 0f97 3ebe
000002a0: 83c0 413e ea37 783d 1960 a43e 04af be3e
000002b0: 1eec 01be 2467 28bf 46e0 b43c decd 06bd
000002c0: 7843 503d 66e0 833e 826c 313e 9bdd 18be
000002d0: 4044 0cbe b107 e03d a2e3 2cbe 5d73 e8bd
000002e0: cc9e 9abb 7a3b 5d3d 3daa 5a3e ca96 89be
000002f0: 3180 423e a54a c73c e29c 053d 4c1c a2be
00000300: 3e55 6c3e b674 32be 0b9a b9bd 97df b43e
00000310: b2b6 92bd 6a66 adbe 3588 cd3d 32a5 143e
00000320: 4ee5 7fbd 1734 e9be 01ac 94bd 5ead e43d
00000330: 32ca a53d 072f 023e 78bb 1fbe 57c9 3d3e
00000340: 7308 083e 42dd 71be 3f95 b13c d502 4a3d
00000350: 6cd5 cb3d 0a22 743d 3bb3 0abe 7853 d8be
00000360: 3816 b7bc 8eeb d9bd 34e6 ddbc ecaf 47be
00000370: 6175 23be 870e 8dbd 0c02 803e 3e20 e23c
00000380: 2414 adbe 5539 4b3e 4ef9 853e 6ecf 1abd
00000390: b8c3 b5bd 8a9d 22be 4da6 b7be 8ebf a23c
000003a0: 8f5f 69be dfde 56be 37d7 6a3e aac0 e9bd
000003b0: b162 7abe b1c5 b6be 649d 41bc e810 803e
000003c0: 3443 3d3e 85e8 44bd f5b1 4ebd b6d3 a8be
000003d0: a2ba 033e 7b68 8b3e f327 b03e 6745 80be
000003e0: 5ed7 4cbb 3f24 6fbe 8fbe 983c 748c d43d
000003f0: 9a7c 0fbe fbf4 c9bd 6845 11be 84f8 183e

linear2.bias f4 [3]
0.09665772 -0.016505701 0.018308802
00000000: 7cf4 c53d f736 87bc 57fc 953c
